sensor_failure/nn_code/joint_swmm_hist_indiv.pt (torch, 19911 bytes, 9 tensors)

net_w_g.0.weight f4 [64, 8]
000000 17 77 e1 bd 4e 8f c4 bb 0e e6 a2 3e 4f da 5d 3e
       -0.11009043 -0.0059985286 0.31816143 0.2166531
000010 b0 dd 81 bd f1 8b 37 3e 58 6d 94 3d 26 82 d1 bd
       -0.06341112 0.17924477 0.07247418 -0.10229902
000020 dc dc b8 3d e2 b6 07 bc cb 93 2f 3e b9 bd 0a 3d
       0.090265006 -0.008283349 0.17146222 0.03387234
000030 d7 6c a8 3e 65 8c 08 3d 2f 4f 9a bd fa e3 c9 3d
       0.32895538 0.033337016 -0.07534634 0.09857936
000040 ae 3e 56 3e d9 9e ca bd f0 95 09 3d e1 c4 e0 3c
       0.20922348 -0.09893579 0.033590257 0.02743763
000050 33 1b 3f bc ff 6c 0c bd ac 10 0a bd c5 6d 89 bd
       -0.0116642 -0.034283634 -0.033707306 -0.0671039
000060 f1 0a 3e 3e b7 4a af 3d b4 0f ed 3d 58 3c 81 bb
       0.18558861 0.085591726 0.11575261 -0.003943961
000070 58 2b cd bd 4d 34 db bc 6b 44 37 be a6 a0 e7 3c
       -0.10018033 -0.026758337 -0.17897193 0.028274845
000080 16 e6 d4 3d 8f d9 a2 3d fd 5d dc 3d 36 17 6c 3e
       0.10395448 0.07951652 0.10760114 0.2305573
000090 86 98 d7 bd 63 88 05 3e d1 0b 89 3d 9a c8 9c bd
       -0.105271384 0.13040309 0.06691707 -0.07655449
0000a0 31 b9 c1 bc ad cd 70 3e 7c fe 9b 3e 42 f3 a7 3c
       -0.023647876 0.23515959 0.30467594 0.020501737
0000b0 98 df 16 3e 16 cb 01 3c 92 75 b7 bc ab be 7e bd
       0.14733732 0.007921955 -0.02239493 -0.062193554
0000c0 4f 68 c6 bd ca 57 d4 3d 1b f5 fa 3d c4 69 d9 bb
       -0.09687864 0.10368307 0.122537814 -0.0066349227
0000d0 a0 c7 26 3d a4 d9 35 3e 38 a5 8b bc 42 4a 73 3e
       0.04071772 0.17758805 -0.017046556 0.23758796
0000e0 22 f8 02 be 2c 6e b9 bd 8b 80 95 bd 8d d1 ea bb
       -0.12789968 -0.09054217 -0.07299908 -0.0071660937
0000f0 12 6b 40 3b 57 c7 53 3d 04 a5 9a 3d 86 7b d1 3d
       0.0029360694 0.051703777 0.075510055 0.10228638
000100 b5 31 a8 3e 81 b8 78 be 79 68 4d be 8b 33 00 bb
       0.32850423 -0.24289133 -0.20059384 -0.0019561972
000110 c8 cc d3 3d 14 80 03 3e 9f 5a 9e 3d 26 78 da 3d
       0.10341793 0.12841827 0.07732128 0.10667448
000120 84 37 a6 3c 41 61 d4 bc d3 1b 4f 3e fc b3 8c bd
       0.020290144 -0.02592528 0.20225458 -0.06870267
000130 79 a6 21 3e a7 9e b5 bd fb 32 37 bd 85 cb 74 3e
       0.1578616 -0.08868151 -0.044726353 0.23905762
000140 59 7d ba 3d 70 36 01 bd 27 d6 8e 3d 35 68 6e 3c
       0.091059394 -0.031546056 0.0697444 0.014551212
000150 7f d2 42 3e 1f fb 69 bd 1b d9 3c bd ac ed df 3c
       0.1902561 -0.057124253 -0.046105485 0.02733501
000160 7f cc d1 3d f6 af 45 3e 84 b3 74 3d 0d d0 c9 3d
       0.10244083 0.19305405 0.059741512 0.09854136
000170 9e 47 b9 bb f1 f7 d6 3d a2 2d a1 3d 5a d8 9c 3d
       -0.0056542894 0.1049651 0.07870032 0.07658453
000180 2f 8d ac 3d 3b 24 59 3e f9 c8 fc 3d e1 00 c1 bc
       0.08425366 0.21205227 0.1234302 -0.02355999
000190 c3 8d e0 3d c2 6a 0c 3e e6 b5 f5 3c 28 84 76 3d
       0.10964539 0.137126 0.029993962 0.060184628
0001a0 56 d7 f8 bd 13 30 b0 bd 55 c8 c3 bb 5d 66 79 bd
       -0.12150447 -0.086029194 -0.005974809 -0.060888637
0001b0 35 a1 8d 3c 81 d3 8d 3d 93 3d 2e 3c 65 c9 e3 3d
       0.017288784 0.06925107 0.010634798 0.11122397
0001c0 26 7d 0b bd 26 56 ec 3d 93 13 00 be 29 78 83 3d
       -0.034054898 0.11539869 -0.12507467 0.06419403
0001d0 c2 9b ef bc 6e a4 8e 3d 6d 96 ed 3d 7b b0 5d 3e
       -0.029249076 0.06964956 0.11600957 0.21649353
0001e0 ca 24 37 be f6 2a 23 bd 4d 13 3e bd 9b d0 31 3c
       -0.17885128 -0.039835893 -0.046405125 0.010852958
0001f0 aa a1 48 3c 92 e6 df 3d 46 c2 30 3d 08 2e d4 3d
       0.012245575 0.1093265 0.043154024 0.10360342
000200 17 b1 d4 3d 4d 33 0c 3e 97 40 58 3d d2 ca 1a 3e
       0.1038534 0.13691445 0.052795973 0.15116432
000210 05 35 53 3e a6 a4 9f 3d 04 38 1e 3d 89 dd 5c bc
       0.20625694 0.07795076 0.03862764 -0.0134805525
000220 38 44 0a 3e 48 3f 2f 39 17 05 94 3d 8b e7 84 3d
       0.13502586 0.00016712875 0.07227533 0.06489476
000230 2f 6c 8e bd 60 ae 76 bd 09 a3 74 bc e7 ce 1b bb
       -0.06954228 -0.06022489 -0.014931449 -0.0023774446
000240 99 94 a9 bc 0f 30 3b 3e 89 ba 6d 3e 74 a8 50 3d
       -0.02070074 0.18280052 0.23215689 0.0509419
000250 01 1a aa 3d be 59 65 bd 70 53 b8 bd 07 bc 84 3e
       0.08305741 -0.055993788 -0.090002894 0.25924703
000260 34 db ed 3d 81 d9 36 3d bc 17 c4 3d 5c 60 06 3e
       0.11614075 0.04464102 0.095748395 0.13122696
000270 64 5d 89 3e f4 77 ed 3c c9 80 02 3e 9c 84 c6 3d
       0.26829064 0.028987862 0.1274444 0.09693262
000280 5a 5b ce 3d d7 18 6f 3d 22 5c 2c 3e 33 a7 81 3d
       0.10076018 0.0583733 0.16832021 0.06330719
000290 78 7c f8 3c 92 71 2d 3d eb bb 40 3d fd cb e9 bc
       0.030332789 0.042344637 0.047054213 -0.028539652
0002a0 2d 00 e8 3d d0 46 5a 3d f6 b5 57 bd 8c e2 25 3e
       0.113281585 0.05329019 -0.052663766 0.16199702
0002b0 70 33 80 3e fc 7a 0c 3e d5 76 36 bd c7 50 6a 3d
       0.25039244 0.1371879 -0.04454692 0.05720594
0002c0 b0 71 5f 3e 4b a0 25 bd 98 01 59 3d 5b b0 8a bd
       0.21820712 -0.04043607 0.052980036 -0.067719184
0002d0 44 78 54 bd b9 12 d9 bc 62 25 b8 bd e8 36 66 bc
       -0.051872507 -0.026498185 -0.08991505 -0.014051177
0002e0 ed 01 4c be 92 2e c5 bd 96 a6 f0 3d cd eb 8d 3d
       -0.1992261 -0.09628023 0.11750524 0.06929741
0002f0 ed 7b 6a 3b aa fd 12 3e b2 26 23 3d 27 6b c8 bd
       0.0035779432 0.14354578 0.039831825 -0.09786063
000300 1b 35 4a 3e f8 7c 88 3d 19 fa c4 bd 7c 06 8a bc
       0.1974682 0.06664461 -0.09618015 -0.016848795
000310 70 61 86 3d 87 57 0e be 23 f0 32 bd 8d d1 6d 3b
       0.065615535 -0.13900577 -0.043686043 0.0036288232
000320 3b ce aa bc d8 81 c5 3b 6f 41 87 3d fa f7 6b 3c
       -0.020850291 0.0060274415 0.06604277 0.014402384
000330 14 6e ab 3d 72 76 d6 bc be ce 6b 3d db d9 11 3d
       0.08370605 -0.026179526 0.05757021 0.035608154
000340 a2 5c 03 3e 1e 06 bc bd 93 6d 6e 3d 10 1b 47 3e
       0.12828305 -0.09180854 0.058209967 0.19443917
000350 07 38 88 bd dd 0b c1 3d 64 59 ba bd ed f0 35 be
       -0.06651311 0.09426091 -0.09099081 -0.17767687
000360 5a f7 88 bd 88 33 8a 3e 33 90 7a 3e e2 6f 2d 3e
       -0.066878036 0.2699244 0.2446907 0.16937211
000370 d9 e5 8c 3d dc af 1d bd b6 a4 a2 3d a8 85 4f be
       0.068797775 -0.03849779 0.07941572 -0.2026583
000380 28 fa a3 bd 21 76 14 3e 5e 23 29 3e f1 0a 09 3e
       -0.08006698 0.14498188 0.16517398 0.1338308
000390 dd 64 1b 3e 1d c2 46 3e 72 d6 43 bd 92 da 4c be
       0.15175195 0.19409986 -0.047811933 -0.20005253
0003a0 f6 dd 0f be 0c 3b 08 3d c4 29 2c 3e 18 3f c2 3c
       -0.14049515 0.033259436 0.16812807 0.023711726
0003b0 e4 da 9d 3d 77 14 1f 3e 6f 79 30 3e ff fe 11 be
       0.07707766 0.1553515 0.17233823 -0.1425743
0003c0 34 f3 1b be 86 4f 54 3d 33 8c c9 bd dc 85 5e bd
       -0.15229493 0.051833652 -0.09841194 -0.054326877
0003d0 c2 a4 2a 3d 70 8a a9 3d 4f eb 64 3c 35 12 ce 3d
       0.04166103 0.08278358 0.013972118 0.100620665
0003e0 b0 16 0e be 6d 46 e7 bc 22 b7 e6 bd 85 8e 70 bc
       -0.13875842 -0.028231824 -0.112653986 -0.014682417
0003f0 2e 9c ff 3c 28 04 14 3d f9 ab 77 3d af 9c 01 3e
       0.031202402 0.036136776 0.06046674 0.12657426

net_w_g.0.bias f4 [64]
000000 de ce 57 3e 37 01 20 3e 02 2c 2a be 4d a9 56 be
       0.21075007 0.15625463 -0.1661835 -0.2096302
000010 af 10 27 3e ee f2 2b 3e 3e 4c 19 3e d5 8c 81 be
       0.16314958 0.16791889 0.1497049 -0.2530276
000020 c9 5c 4f 3e e5 07 0a 3e 9b d3 ff bd 86 fc 33 3e
       0.20250238 0.13479574 -0.124915324 0.17576799
000030 1f eb 41 3e c7 e2 96 be 23 e5 28 3e 5f 28 99 be
       0.18937348 -0.29469892 0.16493659 -0.29913613
000040 de 5b 56 3e c0 85 1b be f1 30 40 3e d0 4f 3f 3e
       0.20933482 -0.1518774 0.1876867 0.1868279
000050 d5 01 96 bd f2 38 37 be 98 28 e8 bd 18 11 bf be
       -0.07324568 -0.17892817 -0.11335868 -0.3731773
000060 28 c6 37 be eb dd 29 3e b1 1b 48 be eb 14 74 3e
       -0.17946684 0.16588561 -0.19541813 0.23836105
000070 68 95 60 3e 8d 1d 39 3e 91 71 9e be 48 69 8f be
       0.21931994 0.18077679 -0.3094602 -0.2801001
000080 34 98 0d be 05 cc 4d 3e e8 77 a2 be dc 49 59 3d
       -0.13827592 0.20097359 -0.31732106 0.053048953
000090 b6 d3 40 be c6 eb 92 be ff 10 9f 3e 32 c3 cf be
       -0.18830761 -0.28695506 0.31067654 -0.4057861
0000a0 fd 31 59 3e 5d 0a 2f 3e 3e eb 45 3e 31 97 6f be
       0.21210475 0.17093797 0.19328019 -0.23397519
0000b0 c0 cc 56 3e f8 59 4d 3e 03 e8 16 be a8 42 50 3e
       0.20976543 0.20053852 -0.14736943 0.20337927
0000c0 45 cf a4 3d cf 23 03 be 47 9d 41 3e 5b e7 2a 3e
       0.08047346 -0.12806629 0.18907653 0.16689818
0000d0 e2 8f 7d be 5a e8 a9 be 86 22 ae be 5e f7 91 be
       -0.24761918 -0.33185083 -0.34010714 -0.2850904
0000e0 3c 6c 59 be 6d de 2f 3e aa a3 90 be 9f 2b 81 be
       -0.21232694 0.17174692 -0.28249866 -0.25228593
0000f0 b1 e2 46 be 93 c1 47 3e 0a a9 47 3e ac c3 3c be
       -0.19422413 0.19507436 0.19498077 -0.18434018

net_w_g.2.weight f4 [32, 64]
000000 79 46 0a 3e ee 04 03 3d 20 58 db bd 5b 20 1d be
       0.13503446 0.031987123 -0.10710168 -0.15344374
000010 db ca 01 3e ee 97 98 3c 75 70 76 3e 28 0f 74 be
       0.1267504 0.018627133 0.24066336 -0.23833907
000020 03 bd c6 bd 8b 38 12 3d 0a 3f 57 bb 35 3a ec bd
       -0.0970402 0.035698455 -0.003284397 -0.115345396
000030 74 16 8c bd 0f 9e 59 be 41 6b d9 bd 9d 0d 41 be
       -0.0684022 -0.21251701 -0.1061616 -0.1885285
000040 85 1f 1e 3e b6 92 60 be ad ae 88 3d c4 13 04 be
       0.15441711 -0.21930966 0.06673942 -0.12898165
000050 60 c0 c6 3d 3e aa 25 3e 3b 32 b9 be f2 4c 18 be
       0.09704661 0.16178223 -0.36171135 -0.14873102
000060 e9 f2 8a bd a8 be 14 3a ad d2 9b bd 5d 42 ad 3d
       -0.06784613 0.0005674162 -0.076085426 0.084599234
000070 6c 79 15 3e a1 08 9d 3d 1f 9b 83 bd 6a a0 8e be
       0.145971 0.076676615 -0.064260714 -0.2785676
000080 0a a2 65 be eb 4e ae 3d 84 b8 a4 bd 43 82 c9 bd
       -0.22425094 0.08511146 -0.08043006 -0.098392986
000090 33 41 a8 bd ff e3 1f be 15 86 ec 3c 1e 93 4f be
       -0.08215561 -0.15614317 0.028872529 -0.20270965
0000a0 c4 5f 85 3e e6 9d 1c bd 60 7f 07 3e f2 28 72 bd
       0.26049626 -0.03823652 0.13232183 -0.05912108
0000b0 0b 10 55 bd 70 9b bb 3d eb 5a 18 be f3 f7 2c 3e
       -0.052017253 0.09160507 -0.14878432 0.1689146
0000c0 e8 4a 21 3e d1 c3 70 be d8 a3 87 3d 79 65 3b 3e
       0.1575123 -0.23512198 0.066230476 0.18300427
0000d0 5a 79 b1 3c b6 d5 53 be 94 66 a1 be a5 9e 2c be
       0.02166431 -0.20686993 -0.31523573 -0.16857393
0000e0 06 5d 0f be 3e b0 bd bd 2c 0a 15 be 7a c0 35 be
       -0.1400033 -0.09262131 -0.14554662 -0.17749205
0000f0 9d cf 1b be a2 56 56 bd df c8 a9 3d ad e8 0a be
       -0.15215917 -0.052328713 0.08290266 -0.13565321
000100 8c 37 4b 3e bf 63 dc 3d 0d 12 74 bd 7a 58 fe bd
       0.19845408 0.107612126 -0.059587527 -0.12419219
000110 96 71 0a 3e 4d ee 33 3c 00 a5 2c 3c c5 a6 9d be
       0.13519892 0.010982108 0.010537386 -0.30791298
000120 94 33 13 3c cc 1e 84 3d 2e 57 bc 3d 78 f5 47 3e
       0.008984465 0.064511865 0.09196316 0.19527233
000130 e4 46 06 3e d8 de 0a be 64 f0 1c 3e d8 61 09 be
       0.1311298 -0.1356157 0.15326077 -0.1341623
000140 16 1c e4 3d f3 dd e7 bd a5 20 c8 3b 64 75 65 bd
       0.111381695 -0.1132163 0.006107407 -0.056020156
000150 87 c9 4e be fc ec 78 3e ed ff 8e bd c8 39 f6 bd
       -0.20194064 0.24309152 -0.06982408 -0.1202274
000160 a0 bb 3e be bc d3 41 3c 58 5b b7 bd fd b8 80 3e
       -0.18626261 0.011830267 -0.08952969 0.25141135
000170 1d db 29 3d 57 28 91 3e ca 7e 6a be 07 80 23 be
       0.04146873 0.2835109 -0.22899929 -0.15966807
000180 ea e2 2c 3d 3c 6f 12 3d 68 25 b0 be 2e 1f ca 3c
       0.04220859 0.035750613 -0.3440354 0.02467307
000190 92 69 72 3d f6 34 38 be 81 f7 d7 3d ac 4e 2a be
       0.05918271 -0.17988953 0.105452545 -0.16631573
0001a0 1f c1 18 3e b3 b7 7c bd 07 3e 8b 3d 25 0c c1 bd
       0.1491742 -0.061698627 0.0679894 -0.094261445
0001b0 58 01 e6 3d db e9 0c 3e 7f 52 79 bd 43 82 2b bd
       0.11230725 0.13761084 -0.06086969 -0.041872274
0001c0 ed 11 66 3e bc 96 7d 3d 85 ed af 3d 73 81 65 bc
       0.22467776 0.06191133 0.08590225 -0.014007914
0001d0 16 c5 8a be 5d a2 6a be 72 0c aa bd aa d1 8f be
       -0.2710349 -0.22913499 -0.08303155 -0.28089648
0001e0 f8 40 7c be a8 d5 0d 3e 5e 11 56 be 49 85 90 be
       -0.24634159 0.13851035 -0.20905063 -0.28226689
0001f0 1f 31 df bd 71 2e 97 bc 27 42 3c 3e 4a 6b 99 be
       -0.10898041 -0.018454762 0.1838461 -0.29964668
000200 5d 24 fb bc 24 0f a2 3c 88 24 e8 3d dd 4b 6a bd
       -0.030656988 0.01978261 0.11335093 -0.057201255
000210 12 0f 0f 3e b0 51 b1 3d 9b 1d 8a bd c5 1c 7a be
       0.13970593 0.08658159 -0.06743928 -0.24425037
000220 b1 df 88 3d 0d fd b0 bc f2 43 f8 bd a6 ae 1f 3e
       0.06683291 -0.021605039 -0.121223345 0.15593967
000230 eb 0e 60 3c 1d 3b ff bd f0 85 ce 3d ee 59 9c bd
       0.013675432 -0.12462447 0.1008414 -0.0763434
000240 e0 9d 0e be 15 75 06 bc 2b f6 ab 3d 12 b8 70 3e
       -0.13927412 -0.0082066255 0.08396562 0.23507717
000250 4a f3 e2 bd 4f 2d 5f 3d 1e 12 41 3d ae 35 a5 be
       -0.1108156 0.05448657 0.04713642 -0.32267517
000260 cd 00 3b bd 63 ed 89 bd 74 a4 75 be e0 7b 9c 3d
       -0.04565506 -0.06734731 -0.23988515 0.07640815
000270 47 d4 0d 3e 56 2d 16 3d 0e 1c de bd 6b 02 5a bd
       0.13850509 0.03666433 -0.10845195 -0.053224962
000280 60 d0 b2 bc 8c 34 f9 3d e6 02 c6 bd 4f 50 49 3d
       -0.021827877 0.12168226 -0.096685216 0.049148854
000290 4d 36 e2 3d 70 47 45 be 8b 27 40 3e 03 41 f2 bd
       0.11045513 -0.19265532 0.18765084 -0.11828806
0002a0 0c 0f b6 3d 3e 37 62 3d f4 67 e2 3d 87 9f 75 bd
       0.08889589 0.055228464 0.11054984 -0.05996659
0002b0 50 26 d6 3d 2b ca 75 3e 5f 03 5a 3b ae 50 d6 3c
       0.10456526 0.24002902 0.003326617 0.026161518
0002c0 26 6d fa bc 09 84 ac bd ca d4 f4 3d 38 23 dc bd
       -0.030569624 -0.08423621 0.11954649 -0.10748905
0002d0 d3 9f 7d be 08 8a 3d bd a6 22 cc be 3d b7 5e be
       -0.24768 -0.046274215 -0.39870185 -0.21749587
0002e0 98 77 43 3d 64 5e 04 3d 7e 81 72 be 01 0d 84 be
       0.047721475 0.03231658 -0.2368221 -0.2579117
0002f0 c4 29 01 3d 3e fa 77 3e 29 f2 ae 3d 99 c7 f1 3c
       0.03153397 0.24216554 0.08542282 0.02951412
000300 5a fd a3 bc c6 78 94 3d b9 55 30 bd 82 49 0c 3a
       -0.020018268 0.07249598 -0.0430505 0.00053515297
000310 aa 45 48 3e 15 e0 39 3e 92 a5 e7 3c c9 ec e9 bd
       0.19557825 0.18151887 0.028277192 -0.11422116
000320 c4 7b 9b bd 0a ab d1 3c 30 82 6d bd 16 28 19 3e
       -0.07591966 0.025594253 -0.057985485 0.14956698
000330 a2 69 aa bc f0 ac 7f bd 62 73 0f bc 80 0a 53 be
       -0.020802323 -0.062420785 -0.008755537 -0.20609474
000340 be dd 70 3d 8a 0c bb bd b6 a2 11 3e 6d bd fe bd
       0.05880522 -0.09133251 0.14222226 -0.12438474
000350 ec e1 61 3e 44 d4 98 3d f5 96 e5 bd 6f 14 9b be
       0.22058839 0.074623615 -0.112104334 -0.30289027
000360 5b de f9 3c b4 d8 91 bd 80 ef 7f 3d df 88 a9 bc
       0.030501535 -0.07121411 0.062484264 -0.020695148
000370 4c e7 a8 3d 1d d2 19 3e 0a 07 82 bd a7 9f 5a be
       0.082472414 0.15021558 -0.06348999 -0.21349965
000380 12 92 15 be 5a 71 ad 3d 4e 68 06 be 14 9d d7 bd
       -0.14606503 0.08468886 -0.13125727 -0.10528007
000390 fe 8e e8 bd 3c 32 43 be 93 8f 05 3e f7 bb 90 be
       -0.113553986 -0.19062132 0.1304305 -0.28268406
0003a0 4d 6b 5f 3e 00 a2 22 3e 09 08 00 bd d1 bd 7f 3d
       0.21818276 0.1588211 -0.031257663 0.062436882
0003b0 1a a7 f6 3a 7d 6f b9 bd 9f 5f 5f bc 5d 35 ab bd
       0.0018818111 -0.09054468 -0.013633638 -0.083597876
0003c0 3c 5e fa 3c ba ec 3a be 3e 3f 06 3c 42 90 bf bd
       0.030562513 -0.18254367 0.008193789 -0.09353687
0003d0 31 34 54 be b9 c4 0c be b2 67 8e be d8 ad 2a be
       -0.20723034 -0.13746919 -0.27813488 -0.16667879
0003e0 8e a6 3f bb 16 57 45 bc 29 29 34 be 3e 8b 23 be
       -0.0029243561 -0.012044689 -0.17593826 -0.15971085
0003f0 cd 7f 2f be ea 18 f2 3d b6 d6 da 3d e6 22 06 be
       -0.17138596 0.11821158 0.10685484 -0.1309925

net_w_g.2.bias f4 [32]
000000 74 a7 37 3e 3e 75 5f 3e 23 70 4c 3e fb 71 39 3e
       0.17934972 0.21822068 0.19964652 0.18109886
000010 3b 06 4e 3e 1c b6 70 be 33 82 5b be f3 fe 79 be
       0.20119564 -0.23506969 -0.21436386 -0.24413662
000020 77 d5 63 3e a1 ff 5b be 1c 72 74 be bc 0b 71 be
       0.22249399 -0.21484233 -0.23871654 -0.23539633
000030 b5 35 38 3e 1e 95 68 3e f8 e5 6c be 9f f3 44 3e
       0.17989238 0.22713134 -0.23134601 0.19233559
000040 19 37 30 3e e2 ad 6e 3e d8 7f 57 3e 92 f8 37 3e
       0.17208518 0.23308519 0.21044862 0.17965916
000050 29 16 4c 3e f1 82 56 3e b4 78 70 be aa 32 3a 3e
       0.19930328 0.20948388 -0.23483545 0.1818339
000060 9a 73 63 be bd 3e 71 be a7 00 46 3e 70 5d 66 3e
       -0.22212067 -0.23559089 0.19336186 0.22496581
000070 63 b6 65 be 77 10 50 be cd 01 4e be 45 19 82 be
       -0.22432856 -0.20318781 -0.20117874 -0.25409904

net_w_g.4.weight f4 [32, 32]
000000 e6 8c 5f bd f0 84 61 3d 50 37 a9 bd c5 3a c8 bc
       -0.05457773 0.05505842 -0.08262503 -0.024442086
000010 02 d8 b5 bd 71 c5 1b 3d c7 ce c0 bb 27 fa 38 3c
       -0.08879091 0.03803009 -0.005884025 0.01129011
000020 34 7b e0 3d 8e 44 85 bc 4e c2 b0 3d f5 58 e9 bc
       0.10960999 -0.016268041 0.08630811 -0.0284848
000030 0d f5 1f bd 88 7a f3 3c 27 0b 27 3d c8 2e f4 3c
       -0.039052058 0.029721513 0.04078212 0.029807463
000040 bd 8c f0 bd 1f d3 86 3d 7b 26 83 3d b4 59 6c bb
       -0.11745594 0.06583237 0.06403824 -0.003606421
000050 35 af d9 3c e5 80 62 bd 58 3c 1c bc 14 97 a4 3c
       0.026572803 -0.055298705 -0.009535871 0.02009157
000060 42 a4 ce bc 9d f1 26 3e bb c9 12 be e9 38 0f 3d
       -0.025224809 0.16303106 -0.14334767 0.034966383
000070 8e 85 8f bc ab 69 c4 bb ff 45 0d be 1c 28 ef b9
       -0.017519739 -0.005994042 -0.13796233 -0.00045615516
000080 22 d7 61 be 78 aa a7 bc c8 63 2d be f0 ca 77 bd
       -0.22054723 -0.020467028 -0.16932595 -0.06049627
000090 33 a6 4d bd 78 11 3b 3e 45 71 d3 3d b1 1e 74 3b
       -0.050207328 0.18268383 0.10324339 0.0037249739
0000a0 27 79 bc bd fc db d3 3c 8f ed 96 3e 4d 40 35 3e
       -0.092027955 0.025861733 0.29478118 0.1770031
0000b0 c8 38 ea 3b 90 42 20 be d6 2e 90 3e 74 a2 72 ba
       0.007147882 -0.15650392 0.28160733 -0.0009255775
0000c0 e0 09 37 be 18 66 4d bd 31 24 0f be e2 9c 17 be
       -0.17874861 -0.050146192 -0.1397865 -0.1480594
0000d0 91 7d 86 be ad 67 e9 bd 34 e1 46 3e 8f f9 dc bd
       -0.26267675 -0.11396728 0.19421846 -0.10789787
0000e0 b8 5d 54 3e d7 93 2e 3e 5b 96 85 be 99 2f c7 3b
       0.20738876 0.17048584 -0.26091275 0.006078672
0000f0 cc 4d 66 3e b4 ea 79 3e 40 be 29 3d e7 96 23 bd
       0.22490615 0.24405938 0.041441202 -0.039938834
000100 f9 4a 98 3e 07 4a 68 3e a3 64 e3 bc 74 e8 82 3e
       0.297447 0.22684489 -0.027757948 0.25567973
000110 f6 b5 d2 3c cd ad 16 bb 6b 4a ea bd 86 8e c7 bd
       0.025721531 -0.0022991777 -0.11439975 -0.09743981
000120 5d eb be bb ac 58 d6 bd 03 cd 25 be 59 02 7a bd
       -0.0058263973 -0.104661316 -0.16191487 -0.061037395
000130 6c f4 62 3e 08 61 52 3d 29 54 f6 bd 71 53 30 3d
       0.22163552 0.051362067 -0.12027771 0.043048326
000140 76 5e 8d bd 8a 50 28 3d 45 41 7d 3d f7 fe a2 3d
       -0.069027826 0.041092433 0.061829824 0.07958787
000150 3e e8 f4 3d a2 5c 56 be 35 b7 33 be 02 12 8e 3e
       0.11958359 -0.20933774 -0.17550357 0.27748114
000160 78 d7 a2 bd 5b e5 ec bd a1 b1 f5 3b 4a 8d 54 3e
       -0.07951254 -0.115671836 0.0074979817 0.20757023
000170 b4 24 31 be 94 dd 1f bd 2c 96 67 bd 22 06 36 be
       -0.17299157 -0.039029673 -0.0565397 -0.17775777
000180 09 58 16 be 4f 91 5d 3d e8 e1 36 3c 28 5f 8b bd
       -0.1468202 0.054093655 0.011162259 -0.06805259
000190 50 18 5b bd 14 1e 04 3e d4 86 43 3e ce 9a 2c 3e
       -0.053489983 0.12902099 0.19094402 0.16855928
0001a0 1a 3c 24 be b0 47 db 3d 12 53 2c 3e 5a c5 8a 3e
       -0.16038552 0.10707033 0.16828564 0.27103692
0001b0 24 d8 e8 bc 9f 28 53 be 8e 7e 47 3e 02 cf f7 bc
       -0.028423376 -0.20620964 0.1948187 -0.030250076
0001c0 05 83 df 3c 4d 54 29 bd 3a d2 c1 bd 50 57 33 be
       0.027284155 -0.04134016 -0.09463926 -0.17513776
0001d0 c3 fc 8e bd 42 e9 01 be c4 18 f2 3d cd 4d c9 bd
       -0.06981804 -0.12686637 0.1182113 -0.098292924
0001e0 6b 3b 01 3e 66 de fd 3d ec 2e 13 be 01 f4 27 be
       0.12620322 0.12395935 -0.14373368 -0.16401674
0001f0 be 25 d6 3d 53 ab 63 3e aa e4 e4 3d 07 c4 50 3e
       0.104564175 0.22233324 0.11176427 0.20387278
000200 e7 74 80 be dc 31 41 be 34 55 2f be 31 0a 26 bd
       -0.2508919 -0.18866676 -0.17122346 -0.040537063
000210 06 ba 06 bd 20 6b 39 3e 0c e5 21 3e 71 28 06 3e
       -0.03289225 0.18107271 0.1581003 0.13101365
000220 4c ec 0f be 3d b1 28 3e 48 06 79 3d 40 cd 07 3e
       -0.14054984 0.16473861 0.060797006 0.1326189
000230 5c 93 54 be df 50 3c bd de 89 50 3d d5 fa 60 3d
       -0.20759338 -0.045975562 0.05091273 0.054926712
000240 ce db 61 be 44 57 ce bd 94 0b 1b bd 1b c4 39 be
       -0.22056505 -0.10075238 -0.03785284 -0.18141215
000250 ae 4a 53 be 4a 87 8e 3d b0 6b 43 3e 82 b0 df bd
       -0.20633957 0.06959398 0.19084048 -0.10922338
000260 ef 40 71 3e bc 25 58 3e a2 1b 55 bd 39 fe 2c bb
       0.23559926 0.21108145 -0.052028306 -0.0026396646
000270 3b 2d 23 3e b3 65 28 3e cf 2e 2e 3e 66 20 12 3e
       0.15935223 0.16445045 0.17010044 0.14270172
000280 7d f8 16 3e 2b cf bd 3d b3 41 e1 3c b2 5b 2c 3d
       0.14743228 0.0926803 0.027497148 0.042079635
000290 de f9 07 be 7e b7 73 be dc 60 33 be 43 33 1f be
       -0.1327891 -0.23800465 -0.17517418 -0.15546899
0002a0 1c 91 1e 3e 8c ea 10 be a9 9a 69 be 51 58 b3 be
       0.15485042 -0.14151973 -0.22812904 -0.35028318
0002b0 dc 51 02 3e 40 9b 96 3e 89 77 cf bd 05 26 a2 3d
       0.1272654 0.2941532 -0.101302214 0.07917408
0002c0 09 9f 14 3d e3 18 4c 3e fb 91 fb 3d c3 08 31 3e
       0.03628448 0.19931369 0.12283703 0.17288499
0002d0 64 a4 a4 3c 4b 4a ca 3d 14 75 7e be 5d 82 04 3e
       0.020097919 0.098774515 -0.2484935 0.12940355
0002e0 99 36 da bd d1 df 5b be 1b 4e 0f 3e 41 3c 1a 3e
       -0.10654945 -0.21472098 0.13994639 0.15062048
0002f0 ea 7a 81 be 7e 80 7b be 4b a4 9c be a6 40 82 be
       -0.25289088 -0.24560735 -0.30594096 -0.25439948
000300 f4 4e c5 3d 24 a8 84 3d 23 48 5b 3c 2e 9e 47 3e
       0.096342 0.06477383 0.013383898 0.19493935
000310 d9 59 d8 3b 27 c1 b0 bd 8f fd 7c be d9 8b 0c be
       0.0066025076 -0.08630591 -0.247061 -0.13725223
000320 d0 ca 78 3d 6b a0 a2 be 87 ac 2a be 8c 4f c1 bc
       0.060740292 -0.31763014 -0.16667376 -0.023597501
000330 ca 34 93 3d 1a 0a c6 bd 36 c1 e7 bd 32 c1 87 3e
       0.07187803 -0.096698955 -0.11316149 0.26514584
000340 8a dc a4 3d 27 87 30 3c 18 6a e8 3c 10 91 00 3e
       0.08049877 0.01077441 0.028370902 0.12555337
000350 df 26 85 3e 02 20 34 3e 6d 10 bd be 0a 94 e2 3d
       0.2600622 0.17590335 -0.36926594 0.110633925
000360 7c de 66 bd 2e d2 b7 bd 3a 3b 97 3e fb 8d 28 3e
       -0.05636452 -0.089756355 0.29537374 0.16460411
000370 f9 86 f2 bd d9 38 71 be 48 2a 3e be b4 68 c9 be
       -0.1184215 -0.23556842 -0.18570817 -0.39337695
000380 b9 6f c6 bd 36 27 92 bd ac ff 1b 3c 30 ee a2 3c
       -0.09689278 -0.07136385 0.009521406 0.019888967
000390 61 4e ad 3d 4d 4e 1c 3e 1e 7a 20 3d 60 02 0e 3a
       0.08462215 0.15264244 0.03917896 0.0005417224
0003a0 44 a1 52 bd 1a 00 87 bb 6f f5 17 3e 72 3b 90 3d
       -0.051423326 -0.004119885 0.14839719 0.07042588
0003b0 2f b7 e8 bc 18 1c 8a 3d 8e d0 5a bd be 86 4e bc
       -0.028407661 0.0674364 -0.05342155 -0.012605367
0003c0 60 91 d3 3c b2 1d ba bd e6 fd cf 3d 1c b0 65 bd
       0.025826156 -0.09087695 0.10155849 -0.056076154
0003d0 86 29 33 bd ee 07 f4 3c 84 b4 32 bd 35 51 0d 3c
       -0.04374077 0.029788937 -0.043629184 0.008625318
0003e0 f5 6d c7 3d 5a b8 63 3d 59 c9 4a 3b 82 f5 12 be
       0.097377695 0.055595733 0.0030942766 -0.14351466
0003f0 e1 80 74 3c 26 bc d9 3d 35 b5 bb 3c ef 9b bb bc
       0.014923305 0.106315896 0.022913555 -0.022901503

net_w_g.4.bias f4 [32]
000000 b2 db c3 bb 8b a8 2a be fd d9 de 3d ef 71 43 be
       -0.0059771175 -0.16665857 0.10881422 -0.19086431
000010 09 78 36 be 3f 19 45 3e 5f 29 57 3e e4 cb 38 ba
       -0.17819227 0.19247912 0.21011876 -0.0007049425
000020 c2 06 f6 3c a1 73 4e 3e b6 dc 3b be 12 3f 6d be
       0.03003252 0.20161296 -0.18345913 -0.2316859
000030 b3 d0 2f be eb ed 49 3e e0 e4 4a be e2 f2 13 bd
       -0.17169456 0.19719665 -0.19813871 -0.036120303
000040 29 4d 5b be 71 e9 35 3e 9b 63 2d 3e 26 6e 3f be
       -0.21416153 0.17764832 0.16932528 -0.18694362
000050 29 bf 2e bd 91 9c 6e be a7 91 33 3e 47 30 4b be
       -0.042662773 -0.23301913 0.1753603 -0.19842635
000060 88 80 3d be e4 1e 5c be 2f 19 39 be ee 1a 65 3e
       -0.18506062 -0.21496159 -0.18076013 0.22373554
000070 22 cc da bc 14 5f 44 be 5e 15 0f bc c4 5a 2e be
       -0.026708666 -0.19176894 -0.008733122 -0.17026812

net_w_g.7.weight f4 [16, 32]
000000 cd ed ec bc 17 e9 61 bd 0c 8d 52 3e 78 b0 26 3e
       -0.028921986 -0.055153932 0.20561618 0.16278255
000010 97 24 56 3e ee 02 37 3e 2e 70 5b 3d af 1a 54 bd
       0.20912395 0.17872211 0.05357378 -0.05178326
000020 b0 09 76 bd 55 d9 26 bd 5a f2 23 3e b0 a9 50 3e
       -0.060067832 -0.040734608 0.16010419 0.2037723
000030 a9 04 5f 3e a2 31 49 bd 29 e0 5c 3e b0 c1 7c bd
       0.21779121 -0.0491196 0.21569885 -0.061708152
000040 06 bb b3 3e 0f 27 8a 3e 72 9a 21 3e da 6d 09 3e
       0.35103625 0.26982924 0.15781572 0.13420811
000050 89 17 af bd 3b 1d 3b 3e 33 13 36 3e d3 ea 87 3e
       -0.08549411 0.1827287 0.17780761 0.26546344
000060 5e 3c 40 bc ca 8e 82 3e 36 36 c8 3c 48 00 30 3e
       -0.011733143 0.25499564 0.024439912 0.17187607
000070 f9 89 57 bd d3 aa 54 bd 3c c6 bf bd b9 85 f2 3d
       -0.052621815 -0.051920723 -0.09363982 0.11841912
000080 b3 af 05 3c 90 e0 4a be d6 a4 0b be 77 38 31 be
       0.008159566 -0.19812226 -0.13637099 -0.17306696
000090 49 47 66 be 55 59 4d bd 5b ce 65 be 58 35 8d 3d
       -0.2248813 -0.05013402 -0.22442 0.0689494
0000a0 72 b9 9d 3d e3 63 a7 bd 94 d0 49 be 3a ae 3d be
       0.077013865 -0.08173349 -0.19708472 -0.18523493
0000b0 b6 fa a7 be e1 6e 78 be 65 8c c5 bd 33 8f a9 3d
       -0.32808465 -0.24261047 -0.09645919 0.08279266
0000c0 0c 0c 09 be 89 7d 7a be db 62 6e be 55 d5 32 be
       -0.13383502 -0.2446195 -0.23279898 -0.17464192
0000d0 7d cc 87 3d 20 6a 2b be 77 cd c1 bd 25 9c 47 be
       0.066308 -0.16739702 -0.094630174 -0.19493158
0000e0 a0 68 d9 bd f7 33 be bd f5 fa 46 be bd ab 5b bd
       -0.10615659 -0.09287255 -0.1943167 -0.05363058
0000f0 d6 59 80 3d 4e e5 17 be 8c 98 ba 3d 57 c2 a8 bd
       0.06267135 -0.14833567 0.09111127 -0.082401924
000100 00 b7 25 bd df 69 0c 3e bf 53 d0 3d 2c 39 4b 3e
       -0.040457726 0.13712262 0.10172223 0.19846028
000110 df d5 49 3e 20 92 6b 3e 7f cf 7f 3d b9 6d 88 bd
       0.19710492 0.23004961 0.062453743 -0.06661553
000120 fb 0d df bd 1d 10 90 3e 84 cd 29 3e 59 47 40 3e
       -0.108913384 0.28137293 0.16582304 0.18777217
000130 4a a3 5a 3e 71 f7 50 3d 30 3b 5f 3e 3c f3 30 bd
       0.21351352 0.05101723 0.21799922 -0.043200716
000140 38 12 f9 3d 79 ab 56 3e 20 0f 0f 3e b2 ef 56 3e
       0.12161678 0.20963849 0.13970613 0.20989874
000150 e6 c0 9f bd dc 09 14 3e b4 6f 0e 3e 6d 16 21 3e
       -0.07800464 0.14456886 0.13909799 0.15731211
000160 2c 7f 39 3d f2 fc 5a 3d e1 cc f2 3d 27 81 20 3e
       0.045287296 0.053463884 0.11855484 0.15674268
000170 25 e2 80 bd 11 34 c2 3d f3 50 96 bd 07 ae 03 3e
       -0.06293134 0.09482587 -0.073396586 0.12859355
000180 7d b2 00 bd 8e 49 7b 3e e7 9d 02 3e ab 5b a4 bd
       -0.03142022 0.24539778 0.12755547 -0.08025297
000190 65 14 71 3e 56 92 01 3e b5 66 34 3e d0 c5 0e bd
       0.23542936 0.12653479 0.17617305 -0.034856617
0001a0 8c 1b 93 bd 57 b7 e8 3d 34 e8 86 3d f8 5c 06 3c
       -0.071829885 0.11363094 0.06587258 0.008200876
0001b0 57 9e 44 be 46 71 13 3e 0c 7a 5e 3e c0 2a 9e bd
       -0.19201027 0.14398679 0.21726245 -0.07722998
0001c0 e8 29 c9 3d de 8f 43 3e a1 d6 34 3e 4f 5d 5d 3e
       0.09822446 0.1909785 0.1766 0.21617626
0001d0 b4 13 a4 bd ca f3 b6 3d 37 49 2b 3e be 04 79 3d
       -0.080115706 0.08933218 0.16727148 0.060795538
0001e0 e1 b4 e5 3d bf 2e 75 3e 45 94 63 3e bd f7 5a 3e
       0.112161405 0.23943613 0.22224529 0.21383567
0001f0 42 29 60 bd ce 55 5c 3e 4f 76 42 bd 44 89 b6 3d
       -0.054726847 0.21517107 -0.04747611 0.089129
000200 14 04 04 be ce 9b 46 3e e8 3d 88 3d 6a 0d 03 3e
       -0.1289218 0.19395372 0.06652433 0.12798086
000210 43 bb 4e 3e 81 d0 24 3e a0 e0 91 3d b1 e7 45 bd
       0.20188622 0.16095163 0.07122922 -0.04831666
000220 23 62 a2 bd 31 9f 59 3e 17 07 e3 3c dd b5 24 3e
       -0.07928874 0.21252133 0.027713342 0.16085
000230 13 ef fd bd a8 28 ea 3d f4 5c 23 3e eb a2 0d bd
       -0.123991154 0.11433536 0.15953428 -0.0345792
000240 fa f5 14 3e f0 a9 e4 3b 94 92 6f 3d 93 de a7 3e
       0.14546958 0.006978266 0.058489397 0.32786998
000250 95 99 49 bd b8 fd 3c 3d 00 2b 80 3d 4b 9e d9 3c
       -0.049218733 0.046140403 0.062582016 0.026564738
000260 0a cb 13 3d fb 79 fc 3d 8f 80 3c 3e 6a 68 3b 3e
       0.036082305 0.123279534 0.18408416 0.1830155
000270 dc f6 25 bd f9 29 c0 3c 4a 76 ad bd c1 17 9e 3d
       -0.040518627 0.023457514 -0.084698275 0.077193744
000280 c3 dd a4 3b 63 70 ef ba 15 eb 50 bd e4 b7 1f bd
       0.005031319 -0.0018267747 -0.05100544 -0.03899373
000290 b7 67 ce bc cc 7f 05 be 88 e5 2f bd 3d b8 55 3c
       -0.02519594 -0.13037032 -0.042943507 0.013044414
0002a0 f7 cd c4 3c 10 07 a7 39 d9 0f cc bc bc 85 2f bd
       0.024023993 0.00031857984 -0.0249099 -0.04285215
0002b0 99 90 f4 bd ad 61 a4 3b b5 db 39 bc 8c 61 47 3b
       -0.11941642 0.0050165267 -0.011343886 0.0030423133
0002c0 93 0b 01 be 9e 29 12 bd 30 e9 10 bd 4f a4 c6 bd
       -0.12602071 -0.03568422 -0.035378635 -0.09699308
0002d0 3d 73 df 3c 52 6c 99 bd d0 a9 62 bd a2 06 e3 3d
       0.02727663 -0.074913636 -0.055337727 0.110852495
0002e0 6a 8c 59 bd 3f 63 fe bd e4 e4 ce 3d d5 ef 1f be
       -0.053112425 -0.124212734 0.10102251 -0.15618832
0002f0 8a 2b 38 3d 21 af b6 bd 46 8a 8e 3c aa 78 fb bd
       0.044963397 -0.08920122 0.017399918 -0.12278874
000300 5c 46 27 bd 91 2d 47 bd de fb e6 3d d7 4f f9 3d
       -0.040838584 -0.04862744 0.112785086 0.12173431
000310 ee b1 cb 3d 66 b8 d2 bd 82 71 96 3e 37 25 ef bc
       0.09946047 -0.102890775 0.29383475 -0.02919255
000320 26 a4 8d bd f4 83 2d 3e 56 54 3d 3e 4e 11 81 3e
       -0.069160745 0.16944867 0.18489203 0.25208515
000330 cf d2 d5 3b 8a a8 79 3e 2c 20 21 3e 00 10 97 bd
       0.0065253745 0.24380699 0.15734929 -0.07376099
000340 24 c7 4c bd ed 89 ab 3e 66 94 3a 3e 76 52 08 3e
       -0.049994603 0.33503667 0.18220672 0.13312706
000350 7e 20 7b bd 74 1b b8 3d 60 21 68 3d c0 5a af 3d
       -0.061310284 0.08989611 0.056672454 0.08562231
000360 d2 6b 82 3e 0f 59 97 3d ec 54 a2 3d 92 48 1f 3e
       0.25472885 0.073900335 0.07926354 0.15555027
000370 8b 04 42 bd 47 e7 86 3d 0a 22 75 bd ca 10 f6 3d
       -0.047367614 0.065870814 -0.059846915 0.12014921
000380 cd bd 27 bc e3 01 49 3e 95 e7 48 3e 90 dd 2c 3d
       -0.010238123 0.19629626 0.19619592 0.042203486
000390 e6 54 ff 3c e6 68 d9 3d 82 bb 1a 3e f8 25 62 bd
       0.031168412 0.10615711 0.15110591 -0.05521199
0003a0 e4 be 66 bd e9 a4 9d bc 0f fb 09 3e 92 de 66 bc
       -0.05633439 -0.019243674 0.13474678 -0.014091151
0003b0 da f2 ce 3d bc bb 15 3e bf 8c c6 3d d6 5e 07 bd
       0.10104914 0.14622396 0.09694814 -0.033049427
0003c0 47 6b 53 3d b9 14 5e 3d cd 0b cd 3d 60 79 38 3d
       0.05161598 0.05421898 0.100120164 0.045037627
0003d0 57 14 df bc 74 44 9b 3d b7 30 78 3b dc 13 f4 3d
       -0.027231378 0.07581416 0.0037870833 0.119178504
0003e0 28 ee 63 3e 3f 76 cf 3d 86 aa 5a 3d e5 69 9d bd
       0.22258818 0.101299755 0.05338528 -0.076862134
0003f0 47 39 25 bd 7c d0 d5 3d 3b 2b 83 bd 66 a4 64 bd
       -0.040337827 0.10440156 -0.0640473 -0.055820845

net_w_g.7.bias f4 [16]
000000 f2 3f 48 3e 83 bc 40 be 42 c6 4b 3e 25 ea 08 3e
       0.19555643 -0.18821912 0.19899848 0.13370569
000010 6e 2e 08 3e 7f 44 b9 bd 85 11 2b 3e 4a 5a 08 3e
       0.13298962 -0.09046268 0.16705902 0.13315693
000020 b5 f6 cf bd 18 83 1e be 7f 50 18 3e ea df c3 3b
       -0.101544775 -0.15479696 0.14874457 0.0059776204
000030 e1 fe f1 bd 44 b2 36 3e 0b a8 30 3e 04 34 0b be
       -0.118161924 0.1784144 0.17251603 -0.13594061

net_w_g.10.weight f4 [1, 16]
000000 cb 55 63 3d 44 fc 4f 3d ba 68 56 3d c5 f4 7d 3d
       0.05550174 0.05077769 0.05234597 0.06200101
000010 4d 04 8f 3d 3b f7 66 3d 3f e0 76 3d a1 b6 aa 3d
       0.06983242 0.05638812 0.06027245 0.08335615
000020 d5 d0 99 3d 3c a5 80 3d 23 ba 84 3d 52 1a d2 3d
       0.07510535 0.06281516 0.06480815 0.102589265
000030 11 a2 8d 3d 1f 6d 5f 3d 1b b3 81 3d 2f 32 8f 3d
       0.06915677 0.054547425 0.0633299 0.06991994
